Models/CryEtModel.pth (torch, 23586 bytes, 22 tensors)

featureExtract.0.weight f4 [5, 1, 3, 3, 3]
00000000: 75b7 333e 74b9 14be c4d0 d2bd 8ab8 e5bd
00000010: 8f1b 2a3d 5044 34be 531c 343e ed37 39be
00000020: a9e3 dcbc 152c 1fbe d519 87bc f446 d8bd
00000030: 5338 e4bd 909a 22be c03d 82bd b3ee 0d3e
00000040: c421 d7bd a893 0d3e dd20 393e 4668 163e
00000050: 1d40 01be 4bc4 21be cb4d 853d e75f 1fbc
00000060: 4625 cdbd b363 2e3e 5f08 a43d 64ed a5bb
00000070: 4de9 5e3a 9c9b fcbd de83 233d 1ab1 7abd
00000080: 12ec e2bd 3155 bbbd c9ab 7abd 8984 02bd
00000090: ffd4 01be 1be2 f53d c454 113e a96f a33c
000000a0: 4890 ccbd 9c39 08be 11e2 2a3e cdb3 c73d
000000b0: 237f 6fbd 6d50 be3d 7049 c93d f483 bebc
000000c0: 45fd 073e b4ad f23d 4cd6 b3bb cc87 bdbd
000000d0: 0963 0e3e ffc2 ed3d 6dda ebbd f459 74bd
000000e0: ecb0 e83d 6c3d 9ebd be66 0cbe b316 23bc
000000f0: a9a8 c53d 76f9 b4bd 2abe fa3d 7ecb da3c
00000100: 760c 363d f2d0 d9bd 6f2f 193d 8846 403e
00000110: b1e1 223e ae7e 84bd 4614 033c ee18 d4bd
00000120: 4243 003c d562 4dbd 0973 9d3d 734a 063e
00000130: 8f46 ee3d 1a9c 203e cfb4 f73d d34a cf3d
00000140: fef2 dabd 8997 ad3d 779e c1bc 5865 833e
00000150: 2b0d 1abe dcaa 49bd c6b7 b13c 8ae9 963a
00000160: aac6 193e b7e6 1b3e fa67 a73b 8fd7 ca3d
00000170: 16eb 03bd a4e9 5c3d 38d9 a93d 1f96 743d
00000180: c7c3 ebbd 2743 303d e071 243d 081b a8bc
00000190: 1bc0 16bd dbcb 5c3e 35b1 05be d93e be3d
000001a0: 6355 4dbd 543d e4bd c9ca b1bd 6a12 0e3e
000001b0: 3089 4ebc 7d73 a43e d719 273e ae9b c53d
000001c0: f4a8 9e3d d638 b23e 6d52 8e3e d7b1 453e
000001d0: 613f 963d 2cca 1cbc b282 2c3e 4b8b 163e
000001e0: 82c9 293e ff05 cb3d d918 843e 1df5 853d
000001f0: 803c a13e ba85 4a3e 9200 863d 645e 5b3d
00000200: defd 1e3e 9170 713e 8726 273e 1143 643e
00000210: 63ab 643e 9c7f 323e 32e6 4d3e
0.17550452 -0.1452387 -0.10293725 -0.11216839 0.04153019 -0.17604184 0.1758893 -0.1808774
-0.026964026 -0.1554416 -0.01649181 -0.10560408 -0.111435555 -0.15879273 -0.06359434 0.13860588
-0.10504487 0.13825858 0.18078943 0.14688215 -0.12622114 -0.15797536 0.065089785 -0.009727455
-0.10016875 0.1703022 0.08009409 -0.0050636996 0.00085033925 -0.12334368 0.03992068 -0.061204053
-0.11080183 -0.09147108 -0.061198983 -0.031864677 -0.12678908 0.12006017 0.14192492 0.019950705
-0.09988457 -0.13303226 0.166878 0.09751091 -0.058470856 0.09292684 0.0982846 -0.02325628
0.13280208 0.118495375 -0.0054881927 -0.09254417 0.13904966 0.11609458 -0.11516271 -0.0596561
0.1136187 -0.07726559 -0.13711068 -0.009954142 0.0965131 -0.088366434 0.12243302 0.02670836
0.044445477 -0.10635556 0.03739875 0.18776906 0.15906407 -0.06469475 0.008000439 -0.103563175
0.0078285355 -0.05014308 0.07687957 0.13114338 0.11634552 0.15684548 0.120950334 0.101216935
-0.10690878 0.08476169 -0.023635132 0.25663257 -0.15044086 -0.04923521 0.021694075 0.0011513692
0.1501719 0.1522473 0.0051088305 0.09904396 -0.032206617 0.053933755 0.08293384 0.05971348
-0.11511951 0.04303279 0.040147662 -0.020520702 -0.0368043 0.2156214 -0.1305588 0.09289331
-0.05013026 -0.1114451 -0.08681256 0.13874212 -0.01260595 0.3211936 0.16318451 0.09648834
0.07747069 0.34808987 0.2779726 0.19306122 0.07336307 -0.009569686 0.16846731 0.14701574
0.16580775 0.09913253 0.25800207 0.06540892 0.3149147 0.19777575 0.065430775 0.053556815
0.1552653 0.23578097 0.16323291 0.22291209 0.22331004 0.17431492 0.20107344

featureExtract.0.bias f4 [5]
00000000: 5796 3fbe b896 d9bd 0679 bdbc a9aa 843d
00000010: 42ab e7bd
-0.18709694 -0.106244504 -0.023128998 0.06477863 -0.11311962

featureExtract.2.weight f4 [5, 5, 3, 3, 3]
00000000: dc7b 7bbd 4b57 0fbd ff56 e7bc 6de2 6dbd
00000010: 4eab 36bd 1ae0 963d 6a11 9b3c a742 bcbc
00000020: a8ff 60bd 2115 763c 0c9e 04bd cc25 b1bc
00000030: e68c 663d 286e 553c b5ad fc3c 7415 52bb
00000040: 8073 42bd a3d0 dfbc 3821 5b3d 7904 983d
00000050: 430d ab3c 09cb 9bbd ccf9 0a3d f36d 19bd
00000060: c688 afbd 385c dcbc cb2e 843c 0338 37bd
00000070: eb82 af3d 5ed0 5a3d 6a66 633d 33f8 a03b
00000080: 2ed9 4bbd 9765 693c 58b6 c5bc 4cab 853d
00000090: eba8 293d 7e54 843d da79 95bb 0c5f d4bc
000000a0: 30a7 4e3d 2d06 85bc d5b7 4b3d b2ab 8ebc
000000b0: 338b 423d 328d 8b3c 0c76 32bd d943 41bd
000000c0: 8dba 8c3d fcd9 333d cbea a23d 96ec 93bd
000000d0: c042 a03d cea3 173d 6a18 a2bc 1d67 3abc
000000e0: b4c9 a0bc eb61 53bd 139b aa3d 4534 afbd
000000f0: 41c8 94bc ec78 f53c 95b0 13bb d105 a2bd
00000100: 9cac 933d 7364 243d fe6d 85bc c7ed 8abc
00000110: b85d 183d b617 1c3d 5623 e8bc d795 afbd
00000120: 3a18 003d 436e 8f3d bb13 9439 9c1b 4ebd
00000130: 83ff 8cbd 8148 53bd 9af5 3bbb e5af 323b
00000140: fb94 57bd d3f3 e6bc 097d e7bc 4a55 e13c
00000150: 632c 5e3d 5ec3 a23d ae33 88bd b321 b9bc
00000160: a5ce 853c 7f6d eb3c 2828 113b 9b31 853d
00000170: 85b4 3a3d a7ce 9ebd cdd8 52bd 2525 6dbc
00000180: 8e5a 7ebd 1774 9bbc b659 b53c dc3f 3a3d
00000190: d9a6 353d a843 873b 55fa 4cbd df15 e9bc
000001a0: 57a9 18bd 0ded 2a3c c9a6 8dbd 635b 7cbd
000001b0: 9e47 893d 4796 af3b 0e23 58bd 72c3 eebc
000001c0: 3d36 2f3d 3cb0 5a3b 7c5a 423d 0605 853d
000001d0: 84f3 173d 9f84 94bd 1e46 2fbd 37f4 403d
000001e0: 9951 1bbc 8f2e 2bbd c8ea c6bc fbd5 993c
000001f0: 75ec 88bd ca02 acbd efcc 003d ab48 7cbc
00000200: 798f 85bc 1058 a53d b76d 643d 3229 31bc
00000210: 6425 233b c587 66bd e24d d53b 8f42 adbd
00000220: a7f9 a8bd 4551 67bd 9ebd 31bd 95b7 f63b
00000230: d04d 703d da48 843d 7840 3fbd 30f4 6abd
00000240: f7cf b5bc b28c 86bd 0560 763d 75ab 5d3d
00000250: 1c16 24bd ca45 ca3c 151e 2e3a d71a 45bd
00000260: 34a9 04bd aeca aabd 8a72 493c 09c3 97bc
00000270: d4bb 2b3c 6a21 8ebd 7383 bebb 9b2d 643d
00000280: db74 613d d4b1 093b 68e8 963c 1b1d 973d
00000290: fada 523d 603e 383d b705 ac3d d6ff 2a3d
000002a0: 693a c6ba 8334 e9bc 45bd 8bbd 6f7a 8bbc
000002b0: ccdc 87bd c4a2 6c3d a196 67bd ad32 a53d
000002c0: 3502 ac3d a397 ca3c 3a0f 863d 8457 2b3b
000002d0: 2e6e 50bb 4810 953d 5769 4e3d d9d7 893d
000002e0: 7614 87bd 1fe6 ec3c e1aa cbbb 8cee a73c
000002f0: 4940 7e3d bcc5 5e3d 7ffc 2ebd 7d10 8dbd
00000300: 3249 9e3c 402b aebb 90ff b0bc 9799 27bd
00000310: 0191 b4bc 68ba 63bd 2e08 1abc 2cbb 2e3d
00000320: f6c3 69bb e40e b3bc 148d b7bc e371 803b
00000330: 1646 aebd 5945 663d 6091 87ba 0436 59bc
00000340: ba20 213d b2ac f13c a52a 9e3c fbd0 24bd
00000350: d58c babc e6ff 6cbd 1288 143d 0393 123c
00000360: 194d 57be edb1 9abd c4d4 2abe 55b6 30be
00000370: 01fb 3ebe cf0f 1ebe 190c a9bd f726 7dbe
00000380: 5adc 1ebe 53f0 62bc 6084 86bd d0cd 21be
00000390: 8f99 203a 1bd6 2abe dbb4 4ebe 92f6 a8bd
000003a0: 28aa 4fbe b32f 50be 77cc 15be 1117 27be
000003b0: cd48 bfbd 6990 843c 97b3 d8bd 8141 8fbd
000003c0: f20d adbd 4c34 3dbe 8aad 39be 4dcc f2bd
000003d0: 4944 18be d2fd 32be 12a0 b6bd 8a6a 49be
000003e0: 11ca 71be c28f 13be 7ce5 cdbd 376d 2fbe
000003f0: 1736 863d d1c8 133e 3d0c a5bd 9521 1f3e
-0.06139742 -0.03499536 -0.028239725 -0.058077265 -0.044596963 0.07366963 0.018929202 -0.022981001
-0.054931313 0.015019686 -0.032377288 -0.021624468 0.056286715 0.013026752 0.030844549 -0.0032056244
-0.04747343 -0.027321165 0.053498477 0.07422728 0.020880347 -0.07607085 0.03392963 -0.03745837
-0.08571009 -0.026899442 0.016135594 -0.04473115 0.085698925 0.05342137 0.05551759 0.0049124
-0.049767666 0.014245412 -0.0241348 0.06526813 0.04142086 0.06461428 -0.004561645 -0.025924228
0.05045241 -0.016238296 0.049735863 -0.017415855 0.047496032 0.0170351 -0.04356961 -0.047183845
0.06871519 0.043909058 0.079549395 -0.072228596 0.078252316 0.03702145 -0.019787032 -0.011377123
-0.01962743 -0.051607054 0.08330359 -0.085548915 -0.018161895 0.029964887 -0.002253567 -0.07911266
0.07210657 0.04013486 -0.0162878 -0.016959084 0.037198752 0.03810855 -0.028337162 -0.085735016
0.031273104 0.07003453 0.0002824346 -0.0503193 -0.068846725 -0.051582817 -0.0028680325 0.0027265486
-0.052632313 -0.028192436 -0.028257864 0.02750649 0.05424155 0.079474196 -0.06650482 -0.022599077
0.016333887 0.028738735 0.002214918 0.06503602 0.045582313 -0.077542596 -0.05147629 -0.014474188
-0.06209808 -0.018976254 0.022137504 0.045471057 0.04434857 0.0041279383 -0.050043423 -0.028452812
-0.03727087 0.010432494 -0.06916577 -0.06161059 0.06703113 0.0053584906 -0.052767806 -0.02914593
0.042776335 0.0033369204 0.047449574 0.06495099 0.03709747 -0.07251858 -0.04279148 0.0471079
-0.009479904 -0.04179245 -0.024281874 0.018778792 -0.066857256 -0.083989695 0.03144544 -0.015398185
-0.016303765 0.08073437 0.055768695 -0.010813044 0.0024894113 -0.056281824 0.0065095285 -0.08459961
-0.082507424 -0.05647399 -0.043393724 0.007529209 0.058667958 0.06459208 -0.04669234 -0.05736178
-0.022193892 -0.06569804 0.060150165 0.054118592 -0.040060148 0.024691481 0.0006642056 -0.0481213
-0.032387927 -0.08339439 0.012295375 -0.018525617 0.010481793 -0.06939967 -0.00581401 0.055707555
0.055043083 0.0021010535 0.018421367 0.07378598 0.051478364 0.04498136 0.083995275 0.04174789
-0.0015123609 -0.028467422 -0.0682321 -0.017026154 -0.066339105 0.057772413 -0.056540135 0.08066306
0.083988585 0.02473051 0.06545873 0.0026144693 -0.0031803953 0.07278496 0.05039343 0.06730623
-0.065956995 0.028918324 -0.0062154387 0.02049949 0.062073026 0.054387793 -0.042721268 -0.068879105
0.019322012 -0.0053152144 -0.021606237 -0.04091796 -0.0220418 -0.055597693 -0.009401364 0.04265897
-0.003566978 -0.021857686 -0.022406138 0.0039198264 -0.085094616 0.05621848 -0.0010343008 -0.013257507
0.03933785 0.029501293 0.019307444 -0.04023836 -0.022772232 -0.05786123 0.03626258 0.008946183
-0.21025504 -0.07553468 -0.16682726 -0.17257054 -0.18650438 -0.15435718 -0.082542606 -0.24721895
-0.15513745 -0.013851243 -0.06568217 -0.15801167 0.00061263976 -0.16683237 -0.20186178 -0.082501546
-0.20279753 -0.20330696 -0.14628778 -0.16317393 -0.093400575 0.016182141 -0.10581129 -0.06994916
-0.084499255 -0.18476981 -0.18132606 -0.118553735 -0.14869799 -0.17479637 -0.0891725 -0.19669548
-0.23612238 -0.14410308 -0.10053536 -0.17131506 0.065532856 0.14432074 -0.08058975 0.15540154

featureExtract.2.bias f4 [5]
00000000: 2db6 6fbd 55a1 e839 bea1 f6bd 0027 4d3e
00000010: a171 67bd
-0.058523346 0.0004437069 -0.120425686 0.20034409 -0.05650485

RPN.0.weight f4 [5, 5, 3, 3, 3]
00000000: 343d 6bbd ea81 043d 7786 823c fd3a e93c
00000010: d46c 263d 7711 a2ba d5e5 a2bc 3fcc 9c3c
00000020: 6e3c 9f3d c392 a2bd 1fa4 cbbc e646 dc3c
00000030: 033d a53d 9a00 3dbd 56f0 04bd c7eb 2b3d
00000040: 285a 793d 3dca 673c 41e0 fd3c f57a 123d
00000050: 0bf6 a83d 69c5 aebd 9659 9ebd b0cd 363d
00000060: 3b8c fc3c fdfb 023d 3728 4f3d 6ac6 373c
00000070: 2f8b cdbc 3e59 33be 1fbc 44bc 5b2a 35be
00000080: 1a67 0bbe 3307 03be 979f ebbd 1d25 fabd
00000090: 590c 45be 3197 bdbd 5124 55be 8b10 283e
000000a0: 2bdc 973c ad0f fabc 94aa 293e de98 0ebd
000000b0: 024f abbd bcea 2abd 4466 31bd 9997 56be
000000c0: 18b3 4abe 6adc 06be 9faf 5ebe 18c3 3bbe
000000d0: c182 f9bd f69e 4abe 2d96 fdbd e9e5 523e
000000e0: 9390 38be 4c00 9e3d 1fd7 6a3e b61e c4bc
000000f0: 2c98 1a3d a1c4 0c3e abc3 8b3d bbd3 3ebd
00000100: b48f 3e3e 5c69 66be 501f 5c3e f558 413e
00000110: c024 99bc c0c3 f53d 0af5 d13d 79ba bcbc
00000120: f9e7 9a3b 0415 ac3d 0ead 34be f7c3 4ebe
00000130: b478 373e aba0 29be 75a4 a2bc 5ce8 4b3e
00000140: 9fe4 2ebe 8c61 6bbd 5a92 b5bd e8d2 2abe
00000150: 4ebd d13d 7b62 a1ba a963 07bd 1af0 7e3d
00000160: f4dc c6bb 66c8 43bb 9fbb 5bbe 0cd8 dcbd
00000170: 6263 60be be3d c23d 5b8f 9b3d f6cd 0dbe
00000180: 69c0 4d3e a4da 223e 0236 13be 14a9 babd
00000190: efd5 03be 51ea 17be ebe3 08bc 1239 5abd
000001a0: c331 5abe e4d6 36bc dece f1bd e88d 66be
000001b0: daa2 0abd f8b6 063e 98ba 55be bfd2 dc3d
000001c0: 4bc8 913d efa6 d63d 5181 4a3e bf85 5d3e
000001d0: beff a93d ecd4 d0bd 6985 40be d9f2 04be
000001e0: d453 393e 7038 5c3e 9a3e a63d ff7c 2f3e
000001f0: c3e6 073e a7fc 933d f7ff e7bd 0267 9bbd
00000200: 9d88 dabd 29a0 46be ea1e 4abe 1faf 89bd
00000210: b451 3fbe fbe1 54bd aafc a1bd 47dc 8d3d
00000220: 63cb adbd d18f 57bb 8bed 923d 7168 cd3a
00000230: 083d afbd 9492 883d 1afd f63c 999f aebd
00000240: 2954 2e3d 2cd3 283d 1e1f 09bd 8cef 743d
00000250: 7ef4 47bc 40a0 1b3d 04f0 513d 8e31 153c
00000260: 9339 7cbd 038f 763d b26d 013d 09ff abbd
00000270: 014f 8a3d 38fd 55bd 1c12 95bd 3c35 34bd
00000280: ff82 433d 41b2 48bd 09a5 023e ad06 4a3e
00000290: 992a 633e 3a19 3c3e fae8 d83d ac6a 443e
000002a0: 161c 41be 95a5 e83d 7654 0ebd 74b2 9f3c
000002b0: 9590 443e 6579 5e3d ee70 533e 6a1d 003e
000002c0: 43d8 153e a9e1 043e 7fa7 d23d 8174 4f3e
000002d0: f210 663e dc74 403e df51 3c3e 461d 283e
000002e0: d15c d83d 997f 773e 6e4c 113d 8ca3 073e
000002f0: 33ee 243e ea93 12be 0a30 6b3e 4f3f abbd
00000300: a3cf 553e 39fb cb3d 5c6c 3abe bc72 c3bd
00000310: ee4a bf3d 2f21 36be 44e4 263c 1e6f 733e
00000320: ee82 21be cf29 503e 825e 8b3d 79f7 19be
00000330: 309e 2d3e 4289 0e3e d1f7 b6bd 25d4 323e
00000340: 1395 543e 83f5 38bd 9f29 d33d 9b1b 8c3d
00000350: a27a dfbc 1afd 9d3d cae7 963d 177b bdbc
00000360: e77b 0e3d 774a 003e c9c8 ef3d 4c3b 973d
00000370: e948 503e a28c 1b3e f8a3 84bd f2c6 123e
00000380: 6b10 973c 2d07 34bd 5212 d93d d3a4 bf3d
00000390: 17f2 0e3e 0b16 343e b694 f43d 4d61 d63d
000003a0: 4e82 7d3e c29c 273e 5668 843c b2f4 f03c
000003b0: 8a4a 563d 75b5 323e 34af 4d3e b0bc 033e
000003c0: 2e14 083e 88c0 5c3e 6f4a 2c3e a5ff 61be
000003d0: 21b8 823d 1fb2 d93d 8681 233e e733 2e3e
000003e0: de65 263e ec0c 34be bbc5 2c3e a7ed 2ebe
000003f0: 1877 dcbd 01ac 5d3e 58df 043e 6ce2 2d3e
-0.057431415 0.03235046 0.015933258 0.02847051 0.04063113 -0.0012364824 -0.019884983 0.01914036
0.07775198 -0.07938149 -0.024858532 0.026889276 0.08068278 -0.04614315 -0.032455765 0.0419729
0.060876995 0.014147338 0.030990722 0.035761792 0.08250054 -0.08533747 -0.07731931 0.044629753
0.030828586 0.031978596 0.05057546 0.011216739 -0.025090782 -0.17514512 -0.012007742 -0.17691939
-0.13613549 -0.12795715 -0.11505049 -0.1221411 -0.19242992 -0.09257353 -0.20814635 0.1641256
0.018537601 -0.030525053 0.16568977 -0.034813754 -0.08364679 -0.041727766 -0.04331042 -0.20956267
-0.19794881 -0.13170019 -0.21746682 -0.18336141 -0.121831425 -0.19787201 -0.123821594 0.20595516
-0.180239 0.077149004 0.22933625 -0.023940425 0.03774278 0.13746883 0.0682443 -0.04658864
0.18609506 -0.22501129 0.2149632 0.1888159 -0.018694282 0.12000227 0.102518156 -0.023038136
0.0047273603 0.08402446 -0.1764414 -0.20191942 0.17917138 -0.16565196 -0.01985381 0.19912857
-0.170794 -0.057466075 -0.08865805 -0.16682017 0.10241185 -0.0012312675 -0.033054028 0.062240697
-0.00606882 -0.0029874085 -0.2145829 -0.10783395 -0.21912912 0.09484433 0.07595702 -0.13848099
0.2009293 0.15903717 -0.14376071 -0.0911428 -0.12874578 -0.14835478 -0.008355121 -0.053277083
-0.21308045 -0.011159632 -0.11807035 -0.2251507 -0.033846714 0.13155735 -0.20871961 0.10782384
0.07118281 0.10481059 0.19775893 0.21633051 0.08300732 -0.101968616 -0.18800892 -0.12983264
0.18098384 0.21505904 0.08117409 0.17137526 0.13271622 0.07225924 -0.11328118 -0.075880066
-0.10670588 -0.19397034 -0.19738355 -0.06722855 -0.18683511 -0.051973324 -0.0790952 0.0692678
-0.084860586 -0.0032892118 0.07174214 0.0015671385 -0.08556563 0.066685826 0.030149985 -0.085265346
0.04256073 0.041217014 -0.03347694 0.059798762 -0.012204288 0.037994623 0.051254287 0.009106053
-0.061578345 0.06019498 0.031598754 -0.083982535 0.0675335 -0.05224344 -0.07278845 -0.04399608
0.04773235 -0.04899812 0.12758268 0.19729109 0.22184218 0.18368998 0.10591312 0.19181317
-0.1885837 0.11359707 -0.034748517 0.019494273 0.19195779 0.05431499 0.20648548 0.1251122
0.14633279 0.12976708 0.102858536 0.20259286 0.22467402 0.18794578 0.18390606 0.16417417
0.10564578 0.24169768 0.03547328 0.13245982 0.16106491 -0.14314237 0.22967544 -0.083616845
0.20879988 0.09960026 -0.18205398 -0.09543368 0.093404636 -0.17786096 0.010186259 0.23772857
-0.15772602 0.20328449 0.06805135 -0.1503581 0.16954875 0.13919547 -0.08933986 0.17463739
0.20759992 -0.045156013 0.10310673 0.06841203 -0.027280156 0.07714291 0.07368429 -0.023129983
0.03478613 0.12528406 0.117082186 0.07384357 0.20340313 0.15190366 -0.06476587 0.14333704
0.018440446 -0.043952156 0.105991974 0.093576096 0.13959537 0.17586534 0.11942427 0.104677774
0.24756739 0.16368392 0.016163033 0.029413555 0.05231718 0.17452033 0.20086366 0.12864947
0.13288948 0.2155782 0.16825269 -0.22070177 0.06382776 0.10629677 0.15967378 0.17011987
0.16249797 -0.17583054 0.16872303 -0.17082845 -0.10764903 0.21647646 0.12975824 0.16980904

RPN.0.bias f4 [5]
00000000: 61af be3d 3489 2c3e 04ea 06be f5a3 e73d
00000010: 7adb 45be
0.093107946 0.16849214 -0.13175207 0.11310569 -0.19322005

RPN.2.weight f4 [5, 5, 3, 3, 3]
00000000: 138b f43d 6c73 df3b cfb0 81bb 3db2 0f3e
00000010: 5057 1a3e 866e a63d 764e 693d 1386 633e
00000020: 319f e93d a271 e73d ac25 b6bd 2d0a a3bd
00000030: 2465 e63c c254 0c3d 0e78 013e 371b b63d
00000040: 8229 143e bb97 1f3d 21d7 41be 7261 3bbe
00000050: c586 9bbd a319 31be 9a9a 44be b712 2dbe
00000060: 54b4 05be cdfe c8bd 8715 03be c773 6ebe
00000070: 558e dabd e166 46bd b7d1 68bd 9adc 13be
00000080: 1ad3 d03d 09fe 713d a59c ed3d 33fa a4bd
00000090: 7a46 19be 1bb8 41bd 666f c2bd b273 78be
000000a0: 9eeb a8bd 963b abbd 7825 283d 9eba b53d
000000b0: c6c1 51bd 8ec8 14be d21a 47be 85e3 1dbe
000000c0: 431b 2dbe f49b 00be 2918 3cbe 66f5 82be
000000d0: 96b3 57be 172f f3bd 4e4c 093e f57a 333e
000000e0: e16a 2f3d 594b efbc 5616 e93d 5bc4 1f3e
000000f0: 163f 49be 1db1 82bd d073 0dbe 8c51 52bd
00000100: e5c5 143e 728a 453e 805b f1bd 9c73 103e
00000110: 265c a2bb ae48 34be 5935 2bbe d955 02be
00000120: 5ca9 903c 6f25 833d b2c0 1d3d 0d76 f2bd
00000130: cb46 afbd f292 a2bd 5ef3 6bbe 339d b3bd
00000140: b111 0abe 82d7 f43c 08fa 8ebd 730c 10be
00000150: d1b4 dc3c 109d 853d 4bcd df3d 61e6 98bc
00000160: 9e68 c3bc 90b5 0e3e f57d c2bd 0e26 65be
00000170: 6794 883c 0f68 f13b 8513 bebd 69d5 e53d
00000180: e415 5c3d 162d 503d 377a e63d e6e7 07be
00000190: b7e1 5abe aac1 22be f4b9 2cbe dc1e d2bd
000001a0: d50f 68be c749 d9bd 938c 77be f858 08be
000001b0: 1053 a6bc dde3 243c 41a4 ab3d d68b 333d
000001c0: b368 a13d 110d 3fbd 55a2 263d 18b3 783d
000001d0: 0146 2bbd 0cc8 6dbd 81af 673d 49b7 68bd
000001e0: 17b5 c9bc 517a 16bd 350d acbd 77f8 643d
000001f0: 6f95 2c3d b9df a0bd 814b b43c 4cd2 7c3d
00000200: 65b2 a4bc 4b8f 86bd fe51 6fbd e765 a6bd
00000210: 2487 2abd a1d5 52bd d2c3 e63c fc49 223e
00000220: 17b7 04be 623f 4f3d 19b8 9c3d bf61 f93c
00000230: de87 ac3d a0ba 9ebd 0c8c e93d 5a6b 593e
00000240: a05c 463e 88ae 953d fea2 4f3d bd75 063e
00000250: 202f 983d 684c 9a3d aaef 203e 58a9 b13d
00000260: acb0 af3d 66f2 a3bc 9ed6 dcbc b35b c93d
00000270: 1c67 663e 2f30 bd3d 7022 0bbe 479b 553d
00000280: 62a8 0c3d 1b7a a3bd 8548 b03d 0132 8e3d
00000290: e808 263e d85d cfbd c68a f63d ab55 1f3e
000002a0: 6bc0 0fbc 490f 8d3d 162d 4c3c 05ad 45be
000002b0: b0c8 073e 8c89 123d 75ba 49be 691f fd3c
000002c0: bc22 5abc fbe4 74be 7b50 103e 1f0d 6b3d
000002d0: 3e5a 17be 40c2 0a3e 23e2 7c3b bfcf 58be
000002e0: 4203 fb3d e2c9 d33c 53c9 42be b0aa ca3d
000002f0: d617 ba3c ee17 9ebd 18fc 253c 8ba8 53bd
00000300: 3ac9 e7bc 73b6 89bd 5a9d e1bc c99d c2bc
00000310: fc1b 30be 118f 0ebd 2a40 babd dfa2 9a3c
00000320: 5858 b8bd 72d4 9fbd 3ec7 0fbe f03f 47bd
00000330: 2fa6 45bd 89a5 0ebe 4fb3 cbbd a611 4ebd
00000340: 7307 44bd 693e d3bc 5353 17be 9d22 20be
00000350: 860b 2cbe 2057 9fbd 5359 dcbd f069 3abe
00000360: 3e99 05be bd1a 593e 8176 de3d ba2e 14bd
00000370: f9eb 2d3e e26a c53d 9bec fb3d 9e5d a33d
00000380: 21d8 e43d 8f8e 95bd effd 70bc 78f9 d23d
00000390: 3060 eabd e98c 02bd f476 d13d a70a 25be
000003a0: 4c91 97bc 7d12 183e f105 f2bd 91ec 15be
000003b0: b6e4 e63d 6691 17be 9e47 5dbe 1e34 123e
000003c0: b565 d3bd c414 8e3d 5e77 9b3d d385 893d
000003d0: 45aa f83c 6962 0e3c 3476 7e3b 39fa f23c
000003e0: 53a7 8e3d d833 8fbd c10f 7cbd e3b0 29bc
000003f0: 2f42 ae3c c6ed 273d c9c3 093d 2dc0 943d
0.11940589 0.0068191793 -0.003957845 0.14032836 0.1507237 0.081265494 0.05695959 0.22219114
0.114073165 0.113009706 -0.08893904 -0.07960925 0.0281244 0.03426052 0.12643453 0.088919096
0.14468959 0.03896306 -0.18929721 -0.18298891 -0.075940646 -0.17294936 -0.19199601 -0.1690167
-0.13057071 -0.098142244 -0.12801181 -0.23286353 -0.10671679 -0.048437957 -0.056840625 -0.14439622
0.101965144 0.059080157 0.11602143 -0.08055534 -0.14968291 -0.047294717 -0.09493904 -0.24262884
-0.082480654 -0.083609745 0.041051358 0.08873485 -0.051210187 -0.1452963 -0.19443825 -0.15418823
-0.16904931 -0.12559491 -0.18368591 -0.2557785 -0.210646 -0.11874216 0.13408014 0.17527373
0.042826537 -0.029210733 0.11381213 0.15602247 -0.19652972 -0.06381438 -0.1381371 -0.0513473
0.14528616 0.19291094 -0.1178503 0.14106601 -0.0049548326 -0.1760585 -0.1671957 -0.12728061
0.017658882 0.06403624 0.038513847 -0.11838923 -0.085584246 -0.07938184 -0.23042056 -0.08770218
-0.13483311 0.029887918 -0.069812834 -0.14067249 0.026941689 0.06524098 0.109278284 -0.01866454
-0.023853596 0.13936448 -0.09496681 -0.22377798 0.016672326 0.007367141 -0.09281067 0.112223454
0.053731814 0.050824247 0.112537794 -0.13272056 -0.21375166 -0.1589419 -0.1686781 -0.10259792
-0.2266229 -0.10609775 -0.24174719 -0.13315189 -0.02030328 0.010064092 0.08380938 0.04383453
0.07881298 -0.04664332 0.040682156 0.060717672 -0.041814808 -0.058052108 0.056563858 -0.05681542
-0.024622483 -0.036737744 -0.084009565 0.055901017 0.0421347 -0.07855172 0.02200866 0.061723992
-0.020104596 -0.065703 -0.058427803 -0.08124905 -0.041632786 -0.051473264 0.028169546 0.15848535
-0.12960468 0.050597556 0.07652301 0.030442117 0.08424352 -0.0775044 0.11403665 0.21232358
0.19371271 0.0730868 0.05069255 0.13130851 0.074308634 0.075341046 0.15716425 0.08674878
0.08578619 -0.020013046 -0.026957806 0.09831943 0.2250027 0.09237706 -0.13587356 0.052150037
0.03434027 -0.07982274 0.08607582 0.06943131 0.16214335 -0.10125321 0.12038188 0.15560023
-0.008773903 0.06887681 0.012461921 -0.19304283 0.1326015 0.035775706 -0.19700034 0.030898767
-0.013313945 -0.23915474 0.14093201 0.05738556 -0.14780518 0.13550663 0.0038586936 -0.21172999
0.12256481 0.025853101 -0.19022112 0.09895837 0.022716444 -0.07719408 0.010130905 -0.051674407
-0.028294194 -0.067242526 -0.027540851 -0.023756878 -0.17198175 -0.034804408 -0.090942696 0.018876491
-0.09001225 -0.078041926 -0.14040849 -0.04864496 -0.04825419 -0.13930334 -0.0994631 -0.0503098
-0.047858667 -0.025786595 -0.1477788 -0.15638204 -0.16801271 -0.0778029 -0.10759225 -0.18204474
-0.13046739 0.21201606 0.108624466 -0.036177374 0.16984548 0.09639527 0.12300988 0.079768404
0.11174036 -0.073025815 -0.01470898 0.10301489 -0.114441276 -0.031872664 0.10227767 -0.16117345
-0.0185019 0.14850803 -0.118175395 -0.14641024 0.11274092 -0.14801559 -0.21609351 0.14277694
-0.103221335 0.069375545 0.07591127 0.06714978 0.030354628 0.008690455 0.0038827779 0.029660331
0.06965508 -0.0699231 -0.06153846 -0.0103571145 0.021271793 0.040998243 0.03363398 0.07263217

RPN.2.bias f4 [5]
00000000: 248a 9b3d 857d 153e 10cd 403e 7b18 afbd
00000010: c0f3 48bd
0.075947076 0.14598663 0.18828225 -0.08549591 -0.049060583

classification.0.weight f4 [5, 5, 3, 3, 3]
00000000: f9d1 9abd 927d d8bc 0563 a43d 8f36 fd3c
00000010: 6fff 1fbe 066b 36be 5b36 313e 632a 7c3d
00000020: bd0b dfbb 7c61 b8bd 821f 20bd 0518 62bc
00000030: cc46 27bc 57fc 16bb 3c39 28be 1cdd 8639
00000040: cc7b 043b 9268 45be 5121 98bd 4763 bdbd
00000050: 2816 49bc 8578 8ebd f608 08be 7b29 01bd
00000060: 344a ecbd 3a0f 0dbe 1115 66bd a364 3abd
00000070: 0977 c2bd a368 483d 70c5 0abe 49c2 4dbe
00000080: 8092 12be 5b13 c9bd dbfe 22be 2fce 21be
00000090: bf0d 08be bd2c 20be da4f 8abc c623 c4bc
000000a0: 6233 37be c6a3 b5bd 3068 03bc e1b6 02be
000000b0: 3586 06be c175 93bc accf 87bd 6092 57bd
000000c0: 59e5 07be 0495 0ebd 3ffe 753c 5367 d6bc
000000d0: 5994 29be a45e efbc 2c41 06be 8883 ddbd
000000e0: f7b8 abbd c2b8 d5bd 21a2 e1bc edab 4bbe
000000f0: e445 66bc 1520 e2bc c413 e7bd 55b7 0fbc
00000100: ba33 c1bd 315c a1bd 78b8 b2bd 3a5a fdbd
00000110: e9f6 13be f964 68bd 5a42 a33c 4ab7 97bd
00000120: c2cc a93b 2685 88bd 26b3 febd 95ef 8cbc
00000130: 7e11 bdbd 3bcf 1ebe caec d7bd 5f0f 9bbd
00000140: 3906 89bd 65f3 003e c576 473e d26b 5cbc
00000150: 22f1 a23d 4131 563d d623 d6bd a0c2 0e3e
00000160: 3193 c53d 9918 91bd 67c1 2a3e 8ab2 c43d
00000170: e696 31be 074c 423e 24e1 133e 57cd 12be
00000180: 0db7 f83d 783d 4f3e eb5c b9bc 4027 973d
00000190: 3a22 1b3e f417 463e 6ba8 013e 5e62 6b3d
000001a0: 7c58 17be ee7f 403e 8e53 183e 64de debd
000001b0: 0423 443e 9439 bfbd bb27 763d 64b5 1c3e
000001c0: 21f5 1e3e def0 48be 548f 653e f37f 603e
000001d0: 9e35 b5bd 131a 3f3e 2570 30ba 12da 80bd
000001e0: e44b 203e fb74 7f3d 48ca 26be fad2 233e
000001f0: 93fb 4c3d f87e c7bd a30f eb3d afef c1bd
00000200: f2ec 3fbe 10f4 de3d 79a5 013e af25 e13c
00000210: 4cfe 2b3e cc0f 423e 81d7 183d cfd1 00bd
00000220: 8695 8abd a9e4 d33c b4b8 4ebc 2b8b ebbd
00000230: e9da 51be 9104 9d3d f31d 943c 13d3 ff3c
00000240: b22a 95bd 6be0 01be 7acc b4bd b253 37be
00000250: 204c 19bd b56d 73be 04d7 243d 0351 94bd
00000260: d045 5cbd 4df0 a0bd e8c9 c8bc 96b4 dbbb
00000270: 75d9 3cbe d280 c0bd 8bb2 2bbe 33e1 b7bc
00000280: fdc9 e8bd 095b a0bc 44eb e23c abe9 2b3d
00000290: 250e 873d 89e1 6bbc 38f2 55be 34aa d2bd
000002a0: e66a a53c c0cd 4cbe 133d 39be 5083 ebbc
000002b0: 0cc1 03be 215e f2bd 6c57 7dbd 21dd 2cbe
000002c0: 7493 f0bc 2758 03be 7d6f 6dbd a77f 48be
000002d0: 80b9 9bbc 31ed 5fbc 51c7 99bc 5e44 38be
000002e0: 06ea 0fbd c0fe 86bd 545b d5bd 728a 83bd
000002f0: e18c 2abe 79a3 73bd 8939 4abd ee82 adbd
00000300: 4ffd eabc 3ed6 4bbe 7c9a aabd 6bee 7ebd
00000310: 9119 d0bd 65d1 05be 0bb9 89bd 7c37 9ebd
00000320: 6e84 073b d0fc 24be cdf3 c7bd 9831 5abd
00000330: 2a39 2dbe 707f 82bd a1fd a5bc 5df9 683d
00000340: 9223 03be 782f d1bd 32a1 29be 2248 863c
00000350: a311 5cbd a58d 83bd 79b6 b2bd 8bd5 10be
00000360: ade8 8ebc 95a0 8f3d 902c 36bd 7d9f 633d
00000370: 581c c93b ef12 01be 4f47 c3bc 7a18 adbd
00000380: c698 99bd 1e84 cebb 53c4 77bd dfc7 9d3d
00000390: 0f72 943c ffd6 ae3d 98fa 5e3e 2830 c43d
000003a0: 4af6 afbc c865 d73d 4140 e8bc d2a9 a53d
000003b0: 3da4 1cbe c9e3 64bc 34ef 623e b9c3 3e3e
000003c0: 6924 103b 6069 473e 4cfc 0d3e fd08 653d
000003d0: ddb0 dbbc 242a 4d3d 96d5 a23d eb51 2fbe
000003e0: 8f64 adbd bf80 363b 7bc4 223b ecbd 36be
000003f0: be14 8d3d a519 7d3d ac61 d8bb 049b ea3d
-0.0755958 -0.026427064 0.08026699 0.030909805 -0.15624784 -0.17814264 0.17305891 0.06156386
-0.0068068192 -0.09002969 -0.03909255 -0.013799672 -0.01020975 -0.002303859 -0.16428083 0.0002572321
0.002021539 -0.19278172 -0.074282296 -0.09247451 -0.012273349 -0.06956581 -0.13284668 -0.0315337
-0.115375906 -0.1377534 -0.056172434 -0.04550613 -0.094953604 0.048927914 -0.13551879 -0.20093645
-0.14313698 -0.09818145 -0.15917532 -0.15801309 -0.13286494 -0.15642066 -0.01688378 -0.02394284
-0.17890695 -0.08869128 -0.008020446 -0.12765075 -0.13137133 -0.018000485 -0.06631407 -0.05262983
-0.13271083 -0.03481008 0.01501423 -0.026172316 -0.16560496 -0.029219933 -0.13110799 -0.10816103
-0.083848886 -0.104356304 -0.02754313 -0.19889803 -0.014054749 -0.027603189 -0.11283067 -0.008771737
-0.09433694 -0.07878912 -0.08726591 -0.12370725 -0.14449657 -0.05673692 0.0199291 -0.074080065
0.0051818797 -0.06666021 -0.124365136 -0.017204085 -0.09231852 -0.1550874 -0.10543211 -0.07571291
-0.0669064 0.12592848 0.194789 -0.013453441 0.07956149 0.052293066 -0.10456054 0.13941431
0.09647215 -0.0708477 0.1667534 0.09604366 -0.1734272 0.18974315 0.14441353 -0.14336143
0.12144289 0.20238292 -0.022627315 0.07380533 0.15149775 0.19345075 0.12661903 0.057466857
-0.14779848 0.18798801 0.14875624 -0.108822614 0.19153982 -0.09337154 0.060096484 0.1530357
0.15523197 -0.19623134 0.22417957 0.21923809 -0.08848117 0.1866229 -0.0006730578 -0.062915936
0.1565395 0.06236742 -0.16288102 0.1599845 0.050044607 -0.09741014 0.11477592 -0.09469544
-0.18742731 0.10886395 0.12660779 0.02748379 0.16796225 0.18951339 0.037314896 -0.03145009
-0.067668006 0.02586587 -0.012617279 -0.115011536 -0.20493664 0.076668866 0.018080687 0.031228578
-0.07283534 -0.12683265 -0.08828063 -0.17903021 -0.037426114 -0.23772319 0.040244117 -0.07242014
-0.053777516 -0.07858334 -0.024510339 -0.006704877 -0.18442328 -0.093995705 -0.16767327 -0.02244625
-0.11366651 -0.019574659 0.027700074 0.04197089 0.06594495 -0.0143970335 -0.2089318 -0.1028637
0.020192575 -0.20000362 -0.18089704 -0.028749138 -0.1286661 -0.1183436 -0.06185095 -0.16881229
-0.029367186 -0.12826596 -0.05796765 -0.19579946 -0.019009352 -0.013667391 -0.0187718 -0.1799483
-0.03513529 -0.065915585 -0.1041781 -0.06422891 -0.16655304 -0.05948207 -0.049371276 -0.084722385
-0.02868524 -0.19905946 -0.08330247 -0.06223909 -0.101611264 -0.13068159 -0.06724747 -0.077254266
0.00206783 -0.16112065 -0.09763298 -0.053269953 -0.16916338 -0.06371963 -0.020262541 0.056878436
-0.12806538 -0.10214132 -0.16565397 0.016391817 -0.053727757 -0.06423501 -0.0872621 -0.1414396
-0.017444933 0.070130505 -0.04447609 0.05557202 0.006137412 -0.12604879 -0.023837714 -0.08451934
-0.07499842 -0.0063023707 -0.060489964 0.07704138 0.018120794 0.08537101 0.21775281 0.095794976
-0.021479744 0.1051746 -0.028350951 0.08089031 -0.15297027 -0.013970324 0.22161561 0.1862935
0.0021994358 0.19473791 0.13865775 0.055916775 -0.026817733 0.050089017 0.079508945 -0.17121093
-0.08466446 0.0027847735 0.002483635 -0.17845887 0.06888722 0.061792035 -0.0066034403 0.11455348

classification.0.bias f4 [5]
00000000: dfc9 42bb 6160 ffbd 16b8 00bd 880c 0b3e
00000010: 6fee 2f3d
-0.0029722375 -0.12469555 -0.031425558 0.13578999 0.042951997

classification.2.weight f4 [5, 5, 3, 3, 3]
00000000: ea67 973c cb73 edbd ab73 f0bd 9b1c 2dbe
00000010: 06f1 95bd 7dae 2fbe 5aee f9bd a2c0 19be
00000020: 6bbe 373d db8b afbd 7b74 13be 4c79 d1bd
00000030: 6891 8d3d 26ce a0bd ab94 e1bd 4d10 6bbd
00000040: ac17 e0bd 4e7b 00bd e99e acbd aa7f f8bd
00000050: 37c2 aabd 5d34 3c3e 7de0 fabd affa 66bd
00000060: 85aa 1f3d 55a1 01bd 5862 1ebd e1ee e2bc
00000070: 3a99 6abd e6e2 dabd 60b1 40be 66a0 17be
00000080: 5fe2 2dbd c160 d9bd d352 de3c 0896 16bd
00000090: 56d1 1dbe 010d f3bd 48bc f7bd 7f9f 77bb
000000a0: b1f0 33be b336 46be a5bd 123d 94df 47be
000000b0: 2f74 013d 53bf d8bd 6356 f83d 40af 1e3c
000000c0: abdb 143e 17c4 4d3e f59c 5b3c 0c3f 6cbd
000000d0: 2323 3dbc 18c0 ad3d 5924 8e3d 0653 503d
000000e0: 51f3 56bd 9924 9ebc 2f73 aebd 143f a8bd
000000f0: be79 5a3d fd99 89bc 5e47 353d 5d48 3ebd
00000100: 07fc e73c ab94 90bd 8acc bebc c5df 863d
00000110: eae2 93bd 8509 e33b 6637 ac3d 67cc 583d
00000120: fe48 d9bc cf51 993d 7348 3ebd a73c 1bbd
00000130: 30aa a2bc a9fc 2e3d 5cdc 8c3d 3ffd dbbc
00000140: 5dcb 4a3b 835f 9fbc 8e1c 2dbe 8226 a6bd
00000150: ff38 53be 01b9 e7bd c4a7 56be 50fb 8cbd
00000160: 4b8e 43be 7fc4 53bd f87d 00be 098b e2bd
00000170: 19aa 55be e8c4 bb3c 5d70 2f3c 943d 36be
00000180: b51c 9dbd 4122 50bc a6ca 01be 4568 32be
00000190: 26eb 95bd fbed d1bd 2ee1 67bb 871a 83bd
000001a0: e3bd febc 0361 3b3c 6b9c 23be 4450 fcbd
000001b0: aa51 913c 8585 debc 182f a2bc 6ed7 ad3d
000001c0: c102 86bd 381e 5bbd 2e63 50be a5ce 5cbe
000001d0: 9c90 d63c 7db4 8739 e17d 05be 9e5b 69bd
000001e0: f741 2ebe a717 62be d694 5ebd 46f8 eabd
000001f0: 0857 173d bf41 19be 11f5 1abe 6582 d6bd
00000200: 38e3 21be 44a0 27be a895 ccbd 1809 9abd
00000210: d277 ebbc 1a75 29bc b1c5 c5bd f3e7 c83c
00000220: b1e0 bebd 1237 04be 0fa5 dabd f8fa 553c
00000230: 3673 4cbe c964 30be 159c 04be 2d2d c5bc
00000240: 1ef4 8e3d 7d04 14be 9f47 673d bf1d 2dbe
00000250: 6d1e 993c 7a46 28be f1a4 81bd adc6 1dbe
00000260: 8d85 9ebd 72df 933c cf34 17be 5097 873b
00000270: d943 1fbe cc13 20be a50e bf3d 4e3a 94bd
00000280: 5e44 f2bd e047 a0bd 1b86 9a3d 7271 32bd
00000290: 37d4 c4bd 6768 83bd 1c02 2ebe 659c 8cbd
000002a0: d569 cebd 2467 d9bd 20a6 ffbc 7f8c aa3d
000002b0: 54f0 1aba d97e 023e 330d fbbd 644b 12be
000002c0: 52aa 833d 8f35 b4bd f073 f2bc 92a2 2cbc
000002d0: ecc9 98bd d6e4 85bd b44d 59bd e964 5cbe
000002e0: 3ddd 97bd c5f5 963d 4b85 88bd 126a a93d
000002f0: c033 763d 9a23 a8bd f21d c63c 766a ebbb
00000300: bc41 083d 0275 a9bc 6eab 09bd ec4f 4f3d
00000310: 969e 113d 28b8 ffbc 0af1 c5bc 303a d93a
00000320: be11 da3c b565 5c3d 4f6f afbc 703c b0bd
00000330: 03b5 50bd d09d a6bc 759d 4cbc be17 69bd
00000340: 1246 d03b b001 783c b022 953d 2e58 2dbd
00000350: b863 a33d 8b54 a03c 8cb1 8bbd 3746 0cbc
00000360: 4ff4 74bd 068e f9bd c0fa ac3d b9e4 ad3b
00000370: 669e 91bc 1100 823c edda 4dbd 8da2 093e
00000380: 276f 84be f779 4cbe 38ea 22be 924c 543d
00000390: 844d 85bd 0fae 1fbe 6908 d13d 8283 b8bd
000003a0: e22b 863d 2309 70be cce7 08be 2e93 11be
000003b0: 2c7a 593d b568 c0bd 12ad d6bd b953 8b3d
000003c0: ad5e f1bd 922e ebbd 23c3 69be f943 2abe
000003d0: 9547 173e 0772 58be 8b4f aabd 1bd6 38be
000003e0: 86a7 9f3d 426e 80bd 2a81 bd3c 2c11 93be
000003f0: 9ed7 88bd 7a19 44be 8521 b83d 76b3 41be
0.018482167 -0.115943514 -0.11740812 -0.16905443 -0.07321362 -0.17156406 -0.12203665 -0.1501489
0.04485933 -0.08571597 -0.14399903 -0.10228214 0.069125 -0.0785182 -0.11014684 -0.057388593
-0.10942015 -0.031367593 -0.08428747 -0.12133725 -0.08337825 0.1837935 -0.12249849 -0.056391414
0.03898098 -0.031648 -0.038668007 -0.027701797 -0.057275034 -0.10687809 -0.18817663 -0.14807281
-0.042452212 -0.106141575 0.027139103 -0.036764175 -0.15411887 -0.11867715 -0.12096459 -0.0037784276
-0.17572285 -0.19356804 0.03582539 -0.19518882 0.031604942 -0.10583367 0.12125852 0.009685338
0.14536922 0.20094334 0.013404121 -0.057677314 -0.011544022 0.084839046 0.069405265 0.050860427
-0.05247814 -0.01930456 -0.08518063 -0.08215156 0.05333876 -0.01679706 0.044257514 -0.04645573
0.028318418 -0.07059606 -0.023290891 0.065856494 -0.07221015 0.006928625 0.08409004 0.05292931
-0.026524063 0.07486307 -0.04645581 -0.03789964 -0.019856542 0.042721424 0.06877968 -0.026854156
0.0030943968 -0.019454723 -0.16905424 -0.081128135 -0.20627211 -0.113145836 -0.20962435 -0.068838716
-0.19097249 -0.051701065 -0.12548053 -0.11061675 -0.20865668 0.02292104 0.010707942 -0.17796928
-0.07671491 -0.012703479 -0.1267496 -0.17422588 -0.07320242 -0.10250469 -0.003538202 -0.06401544
-0.031096404 0.011436704 -0.15977637 -0.12319997 0.017739136 -0.027163276 -0.019797847 0.084883556
-0.06543494 -0.053495616 -0.20350334 -0.21563204 0.026192002 0.0002588368 -0.130363 -0.05697214
-0.17017351 -0.22079335 -0.05434116 -0.11473136 0.036948234 -0.14966486 -0.15132548 -0.104740895
-0.15809333 -0.1636973 -0.09989482 -0.07521266 -0.028743658 -0.010342861 -0.09656847 0.024524665
-0.093202 -0.12911633 -0.10676014 0.013060324 -0.19965824 -0.17225946 -0.12950166 -0.024069393
0.069801554 -0.14454837 0.056464788 -0.16905878 0.018691266 -0.16433135 -0.06330288 -0.1540782
-0.077403165 0.018050883 -0.14766239 0.004137911 -0.15553226 -0.15632552 0.09328965 -0.07237683
-0.11829446 -0.07826209 0.0754511 -0.04356522 -0.09610789 -0.064163975 -0.16992992 -0.068657674
-0.100787796 -0.10615376 -0.031207144 0.08327579 -0.00059104455 0.12743701 -0.12258377 -0.14286572
0.064289704 -0.08799278 -0.029596299 -0.010536807 -0.074603885 -0.065377876 -0.05305262 -0.21522869
-0.07415245 0.073710956 -0.066660486 0.082721844 0.060107946 -0.082099155 0.0241842 -0.007184322
0.033265814 -0.020685676 -0.033610754 0.05061333 0.03555163 -0.031215742 -0.024162788 0.0016573127
0.026619788 0.053807933 -0.02141538 -0.086052775 -0.050953876 -0.020338923 -0.012488713 -0.056907408
0.0063560093 0.015137121 0.07282007 -0.042320423 0.07978004 0.019571563 -0.06820974 -0.008561662
-0.059803303 -0.12185292 0.08446264 0.005306807 -0.017775726 0.015869172 -0.050257612 0.13440914
-0.25866053 -0.19968401 -0.1590966 0.051830836 -0.065089256 -0.15593742 0.10206682 -0.09009458
0.06551339 -0.23440985 -0.13369673 -0.14216301 0.053095028 -0.09394971 -0.10482229 0.06803078
-0.11785636 -0.11483492 -0.22828345 -0.16627492 0.147734 -0.21137248 -0.08315953 -0.18050425
0.077956244 -0.0627103 0.02313288 -0.2872404 -0.06681751 -0.19150344 0.08990768 -0.18916115

classification.2.bias f4 [5]
00000000: 9037 1cbe d628 47be d69f 3d3e e0f0 38be
00000010: 9e58 cfbe
-0.1525557 -0.19449171 0.18518004 -0.18060637 -0.40497297

classification.5.weight f4 [5, 40]
00000000: 0e87 053d fa7b 713d 2337 1dbd 0667 093d
00000010: 37d3 8dbb 9713 65bd 33a2 d5bd 2943 21be
00000020: ed4a a2bc 3aea 0bbe bfb9 81be 655b dbbc
00000030: ee21 eebd 15f9 64be 3437 6cbe b151 67bb
00000040: 3d6b 08be 11f9 c8bc 7fa1 4fbe 1f12 9ebe
00000050: 4fc3 dbbd 0b92 cebd f418 48be e1c6 51be
00000060: 962f 86bd 72b7 eabd 818f fcbd 9fce 823a
00000070: 7563 05be 6e02 d63d fabb 173d 04a0 d73d
00000080: 9d14 8a3d 15dc 073e 634c 20be 4464 013e
00000090: 5edf 063d e484 a5bd 7fb7 053e 0b26 573d
000000a0: 8e85 693d 0413 183e 0864 20be a817 87bc
000000b0: 244d c13c 1c64 3bbd 5c3c c63d 1d66 a63d
000000c0: e2fc d93d cbcf d3bd a8db c7bd 1e71 e13d
000000d0: 6e07 cebd 5343 aabd e06c d7bd b918 03be
000000e0: 7f9f ee3c 0762 1fbe 8f52 0ebe 4d57 033e
000000f0: ab85 0e3e 0ac3 85bc cec2 c4bd 5b1b 2ebb
00000100: 9909 11be 615a bc3d c883 103e 2b7f 98bd
00000110: 216b 763d e8b7 84bd 993e 023e b1bd 80bd
00000120: b4a5 1bbe d789 5f3d 9558 bcbd c8c1 fd3d
00000130: 2728 84bd b311 08be a3af 933c 93ab ed3d
00000140: 4ba3 d83d 8624 97bb 3ad7 6a3d cc1f fcbd
00000150: 829c b03d c38c 89bd 1a00 1c3e fc38 a53d
00000160: 0493 f63d 3794 07be c522 0c3e 66e0 14be
00000170: cbce 073d 5ebb 1e3d 9c67 18bd 0166 18be
00000180: 4f3a b83d c5b7 0fbe c037 673c 7d7a 0cbd
00000190: 4e82 ce3d 6eb5 7a3d e486 a13b fe03 cbbd
000001a0: 60ac 7dbd e3f7 abbc 9729 1f3e 5d83 0dbe
000001b0: 118e 65bd 3662 723b 3e04 8e3d c5ae 0dbd
000001c0: 11ad 0e3e fa89 ed3d 6b0e 14be 658d ce3b
000001d0: 6c85 6abd 53fd 19be 4be8 15bd 37ec 13bd
000001e0: d7fb a7bd cc85 cebb 5780 bfbd de96 403d
000001f0: 0564 e8bd 714e dfbd 0dc8 543d 3f22 a03d
00000200: f9a3 60bd 60a5 a93d f05e 953b 54c6 ab3d
00000210: a5e9 823d 5523 86ba f5ad 1a3c 7311 c2bd
00000220: 0d34 013e be91 953d da06 363d 920f 413d
00000230: e2f8 023e be3e 103e 445e afbc 7531 703e
00000240: c775 4e3d 6257 183e 8a8a c5bd 3770 3dbc
00000250: b424 5a3e 7d43 b03d 9be9 1a3e 882f b0bd
00000260: 2c11 7ebd 0ba8 5cbd 6398 153d c835 343d
00000270: e720 5e3d c44d 043e daf1 e7bc ce8e f13d
00000280: b392 a43d c71e fc3d b4fc 1f3e cbbc 13be
00000290: f778 1cbc c243 c2bd 4b2b c13d cadc 073e
000002a0: d72c e03e 9e2e c83e 877b a8be 726e 403e
000002b0: 5764 913e 931a 04be 4774 1dbe 9c3e e53e
000002c0: 0dd1 ce3d 1652 8e3e e094 133d 8b2f c83d
000002d0: 1948 663e ea82 5a3e 68ea 043e d29c 9a3a
000002e0: 0269 893e ee20 743e 2800 ebbc 1308 873d
000002f0: 7e43 073e 5c54 d03e 5b88 083d 7ce1 2d3c
00000300: d133 9dbd 64f1 c6bc b7f6 823e 8c87 7d3e
00000310: e0da 4c3d 20a0 fc3d 09ce 333d b855 14be
0.0325995 0.058956124 -0.03838266 0.033545516 -0.0043281573 -0.055926885 -0.10431328 -0.15748276
-0.019811118 -0.13663569 -0.25337026 -0.026776979 -0.11627565 -0.22360642 -0.23067933 -0.0035296495
-0.13322158 -0.024532827 -0.2027645 -0.308732 -0.107306115 -0.10086449 -0.19540769 -0.20486023
-0.06552045 -0.11460771 -0.12332059 0.0009979791 -0.13026221 0.10449682 0.037044503 0.105285674
0.06742213 0.13267548 -0.15654139 0.12635905 0.032927863 -0.080819875 0.1305828 0.052526515
0.057012133 0.14851004 -0.15663159 -0.016490772 0.023596354 -0.04574977 0.096794814 0.08124945
0.10643937 -0.10342368 -0.09758693 0.110079035 -0.10060011 -0.08313622 -0.10518813 -0.128024
0.029128788 -0.15564738 -0.13898681 0.12826271 0.13918178 -0.016328353 -0.096074685 -0.0026566598
-0.14163817 0.09196926 0.1411277 -0.0744613 0.06016076 -0.0648039 0.12719192 -0.06286181
-0.1519993 0.054574814 -0.09196583 0.123904765 -0.06452971 -0.13288002 0.018028086 0.11604991
0.10578021 -0.004612508 0.057334162 -0.12310752 0.086236015 -0.06716301 0.15234414 0.080675095
0.1203976 -0.13240133 0.13685139 -0.14538726 0.033156198 0.038752906 -0.037208185 -0.14882661
0.089954965 -0.14034946 0.014112413 -0.0342965 0.100834474 0.06120818 0.0049294103 -0.09912871
-0.061931968 -0.020992225 0.15543209 -0.13819642 -0.05604369 0.0036984808 0.06934403 -0.0345905
0.13933207 0.115985826 -0.14458625 0.0063034766 -0.057256147 -0.15038042 -0.036598485 -0.036113944
-0.082023315 -0.006302571 -0.09350651 0.04701888 -0.11347202 -0.109036334 0.051948596 0.07819032
-0.054843877 0.08283496 0.0045584366 0.083874375 0.063922204 -0.0010233918 0.009440889 -0.094759844
0.12617512 0.07303189 0.044440128 0.04713399 0.12790254 0.14086434 -0.021407254 0.23456366
0.05040529 0.14877084 -0.09645565 -0.011562399 0.21303064 0.08606622 0.15128176 -0.08602816
-0.062028095 -0.053871196 0.03652228 0.043996602 0.054230597 0.1292029 -0.028313566 0.11794816
0.08035793 0.12310558 0.15623742 -0.14427488 -0.009550325 -0.0948558 0.094320856 0.13267818
0.4378421 0.39098066 -0.32906744 0.18792132 0.28396866 -0.12900762 -0.15376388 0.4477433
0.10098467 0.27797002 0.03603065 0.09774693 0.2248844 0.21339002 0.12980044 0.0011796004
0.26837927 0.23840687 -0.028686598 0.06593337 0.1320934 0.4068936 0.033333164 0.010612842
-0.07675899 -0.024285026 0.25578853 0.24758738 0.050013423 0.12335229 0.043897662 -0.14485824

classification.5.bias f4 [5]
00000000: 988a 48bd 2e84 f4bd 8ed9 8fbd a354 cb3e
00000010: 5cd1 8d3e
-0.0489603 -0.11939274 -0.07023917 0.3971301 0.2769879

classification.7.weight f4 [5, 5]
00000000: 86a0 76be 464f 683e f80d 44be 61e9 183f
00000010: 5e0e ca3e a56c d43d 636a 69bd 8bff 883e
00000020: f3cf 2e3f 5ad4 ca3e d10b 9e3d 29e7 babe
00000030: f528 7abe 8c6c 5cbe 74b7 a93e a140 32be
00000040: b9de cdbd fbd2 d23e ef86 5f3d b03c ebbc
00000050: 56a9 5e3e b314 de3c 3de4 b6be 0740 93bd
00000060: 42c1 c5be
-0.24084672 0.2268649 -0.19145954 0.5973111 0.39464086 0.10372285 -0.056986224 0.26757464
0.68286055 0.39615136 0.077170976 -0.36504486 -0.24429686 -0.21525782 0.33147776 -0.17407466
-0.100522466 0.4117659 0.054572042 -0.028715461 0.21744284 0.02710948 -0.35721007 -0.071899466
-0.38624007

classification.7.bias f4 [5]
00000000: 2b31 1f3f f98a a0bd 433b 2fbe a18e 0e3f
00000010: 6f0f 3ebb
0.621844 -0.07839007 -0.1711245 0.55686384 -0.0029000898

boundingRegression.1.weight f4 [5, 40]
00000000: f521 30be ff8c f8bd 954a 09bc c3f4 91bc
00000010: 454b 06be 7f0d 39be f201 d4bd 2a60 44be
00000020: 6169 62be 507c 36be 0b17 3cbe 9735 cdbd
00000030: 8357 edbd cac7 0abe cfb1 bfbd b0e6 85be
00000040: 8686 0fbe 1ed5 5a3c 9f9f 74be be88 32be
00000050: bc90 1fbe 5e7a 20be dd7f 36be 32d7 acbc
00000060: ea2d 593c 695e 12bd 5fe2 6bbe 7c0c adbd
00000070: 30e6 98bd b981 fabc de72 87bc 566c 2bbe
00000080: aced 8ebe ed5a 3abe b380 5abd 889a ae3c
00000090: 4c2a 86be 21f8 edbd 75b3 1a3c c5f8 cfbd
000000a0: d698 893d 1c40 ffbd 6bc9 a9bd 3b86 d33d
000000b0: 36bb 86bd 4422 23bc 3e6a 43be bf8a a43d
000000c0: bb64 593c cb1c 35be abe8 093b 2ba3 573c
000000d0: 8452 57be 70b1 8d3d c75b 41bd b02e abbd
000000e0: c286 51be 3a73 a4bd 56a5 85bb e249 c3bd
000000f0: 06a0 67bd 78da 60be 8605 f6bd 1985 1dbd
00000100: b448 1cbd 5011 b1bd f43b b93d 0b84 343d
00000110: 8968 0b3d 1ea2 abbd 6df8 ccbd f882 843d
00000120: a854 aabd c24f 33be 39d4 77bd a588 5abd
00000130: 4c45 c8bc c64b 973c 9ce2 c5bd 9c16 21bd
00000140: ab5b c83b 1a6f f4bd eb16 94bd 3feb 7d3d
00000150: 8ebe 2fbd 8aa3 c13d 5842 10bd 854b 043c
00000160: de95 eabb 5619 20be c31b b33a 5448 863d
00000170: 91f4 7cbc 796e 66bd dd7b a13d 3cdc 81bd
00000180: 5735 97bd 2739 23bd 6cfe d43d e05d bd3b
00000190: 22d5 9dbd d174 1c3e 64d9 9bbc a50a edbc
000001a0: 0f92 0ebe cdb5 203e 37bd 193d d664 16be
000001b0: ef8a 063d c981 33bd 4224 8c3d 33fb 1d3d
000001c0: e259 0dbd c534 31bc 3e66 383d f62f 81bd
000001d0: d747 82bd 25df d9bb 8398 33bc ed99 2ebd
000001e0: 6bff fa3d 49d8 92bc 229b 72ba 2c66 8ebd
000001f0: a981 12bd 63e3 debd 7683 943d 23f0 15be
00000200: 3aad d83d 974c c53d bad6 aabd bbad 013d
00000210: bdc5 ecbd 3f21 9bbd 162b b13c b01c e63c
00000220: fc4c f7bd 45cd e6bd 1263 f03d be89 79bd
00000230: df35 00bd 3fa6 0c3d 471a 0cbe 09ef eebd
00000240: b492 033e 49eb 02be 8b8b 1fbe e2b6 193e
00000250: 8e6f 79bb 3cc2 fd3d 8a15 54bd 1d43 a03d
00000260: dba4 b8bc 353a 04bd ba9b 8dbd 54b0 fdba
00000270: e908 743d 8604 97bd 9e03 b9bd 0763 1c3e
00000280: e584 bbbd 9161 f5bd 8b6e 16be bec8 d4bd
00000290: 9e20 8bbe cae0 43be 508d b1bd c9bb eebd
000002a0: 5e84 04be 6182 50bd b492 96be 40bd 3fbd
000002b0: 000c 8abe 169a 49be 50ad 1abe 4ee8 37bd
000002c0: 2f05 57be 95e6 49be 2a46 64be 6693 81be
000002d0: 2630 ffbb 1c79 89be 2063 1ebd def6 28be
000002e0: d64e 2ebc ab7f 9cbe 3128 80be f35a b4bd
000002f0: 9e40 153c 44da 2cbe e87a 03be 800f 5bbe
00000300: 4b52 2dbe 5124 35be 9e35 52bd e800 89be
00000310: fb5d 14bd 3941 83be a34e 0dbe a6b8 58bd
-0.17200454 -0.12136268 -0.008379598 -0.017816907 -0.1311465 -0.18071555 -0.103519335 -0.19177309
-0.22110511 -0.17820859 -0.18368165 -0.10019987 -0.11588957 -0.13552776 -0.09360086 -0.26152563
-0.1401616 0.013356475 -0.23889016 -0.17434976 -0.15582556 -0.1567168 -0.17822213 -0.021098707
0.013255576 -0.035734568 -0.23035572 -0.08449647 -0.0746578 -0.030579435 -0.016534265 -0.16740546
-0.27915704 -0.18198748 -0.053345393 0.02131392 -0.26204145 -0.116195925 0.0094422 -0.10154871
0.06718604 -0.124634 -0.082903706 0.10328337 -0.065786764 -0.0099569 -0.19083497 0.08034276
0.013268645 -0.17686765 0.0021043222 0.013161461 -0.21027571 0.06918609 -0.047206666 -0.08358514
-0.20461562 -0.0802979 -0.0040785475 -0.095355764 -0.056549095 -0.21958339 -0.12012772 -0.03845701
-0.038155273 -0.0864588 0.09044638 0.04407124 0.03403524 -0.08380531 -0.10008321 0.06470293
-0.08316928 -0.17510894 -0.060505126 -0.05335297 -0.024447106 0.018468749 -0.09662363 -0.039328203
0.0061144433 -0.119352534 -0.07230934 0.061991926 -0.042906336 0.09455021 -0.03521952 0.008074646
-0.007158979 -0.15634665 0.001366489 0.06556764 -0.015439169 -0.0562577 0.07884953 -0.063408345
-0.07383221 -0.039849427 0.104000896 0.005779013 -0.077066675 0.15278937 -0.019024558 -0.02893574
-0.13922904 0.15694351 0.037533965 -0.14686903 0.03284734 -0.043824945 0.06842853 0.03856964
-0.034509547 -0.010815804 0.04501938 -0.06307976 -0.063613586 -0.0066489154 -0.010961655 -0.042627264
0.12255748 -0.017925398 -0.0009254684 -0.069530815 -0.035768185 -0.10883214 0.07251637 -0.14642386
0.10579915 0.09633749 -0.08341737 0.031659823 -0.11561153 -0.075747006 0.02162699 0.028089851
-0.120752305 -0.11269621 0.11737646 -0.060922377 -0.031301375 0.034338232 -0.13681899 -0.11666686
0.12848932 -0.12785067 -0.15580575 0.1501117 -0.0038060877 0.12390563 -0.051778354 0.07825301
-0.022539547 -0.032282073 -0.06914468 -0.0019354918 0.05957881 -0.0737391 -0.09033893 0.15272151
-0.09156207 -0.119815 -0.14690606 -0.10389851 -0.27173322 -0.19128719 -0.08669531 -0.11656911
-0.12941119 -0.05090559 -0.294088 -0.046811342 -0.2696228 -0.19687685 -0.15105176 -0.044899277
-0.20998071 -0.19716866 -0.2229239 -0.2530777 -0.007787722 -0.26850212 -0.03866875 -0.16500422
-0.010638913 -0.30566153 -0.25030664 -0.0880641 0.009109644 -0.16880137 -0.12839854 -0.21392632
-0.16925924 -0.17689635 -0.051320665 -0.26758504 -0.03622244 -0.25635698 -0.13799529 -0.05291047

boundingRegression.1.bias f4 [5]
00000000: ce9b 41be 2616 16be f52c bbbd f192 edbd
00000010: 4a5f 63bd
-0.18907091 -0.14656886 -0.09139434 -0.116002925 -0.055510797

boundingRegression.3.weight f4 [5, 5]
00000000: 8304 aabe 1909 3ebe 43d8 e43e a13b d83e
00000010: c9fe c63e 277d 8e3e 539a 98be e7b4 8fbe
00000020: 6170 cfbb b995 64bc f4ae 443e f444 e43b
00000030: 1ee1 b1be 23dd 573e c8b9 d23d 5e1f 813e
00000040: b502 e33d eaee f0bc 1ff7 5abe 3507 95bd
00000050: 52ca 79be f60e a2be 507b 79be 0425 acbd
00000060: 1067 3f3c
-0.33206567 -0.18558158 0.44696245 0.42232993 0.3886626 0.2782986 -0.2980524 -0.28067705
-0.0063305353 -0.013951712 0.19207364 0.0069662277 -0.34742063 0.2108045 0.10289341 0.25219244
0.11084501 -0.029410798 -0.21383332 -0.07276765 -0.24393585 -0.3165204 -0.24363446 -0.08405498
0.011682287

boundingRegression.3.bias f4 [5]
00000000: c6d7 c2be 31e6 0540 b75e e0be d7f7 bdbd
00000010: ee2e 0e40
-0.38055247 2.0921748 -0.43822262 -0.09275787 2.2216144

boundingRegression.6.weight f4 [6, 5]
00000000: e9cb d03e 5d76 9c3f 2830 9ebe 6c36 643d
00000010: 8dcc f53f f734 a83c 1094 0340 3bab 603e
00000020: 2aab 59be 0b11 ce3f 49a6 0cbe 4ef8 e33f
00000030: 5a59 e23c b697 05be 8bd5 de3f bdcc 8d3e
00000040: d2b5 db3f 3865 eabd c508 083f 9b45 a63f
00000050: da70 96be 0396 cf3f 6ca0 aebe f095 1c3e
00000060: 2e6d b73f 509b a23e c174 da3f 1f61 a43c
00000070: 0966 5b3c 9c8c e13f
0.4078057 1.2223622 -0.30896115 0.055715963 1.9203049 0.020533068 2.055912 0.21940319
-0.212567 1.6098951 -0.13735308 1.7810152 0.027630497 -0.13046154 1.7408918 0.27695265
1.7164862 -0.11445087 0.5313838 1.2989992 -0.29382974 1.6217655 -0.34106767 0.15291572
1.4330194 0.3175912 1.706688 0.020065842 0.013391026 1.7621036

boundingRegression.6.bias f4 [6]
00000000: 1ba9 b73f f872 c33f dd9f c53f 4c36 623f
00000010: 1216 b33f 3b4c d03f
1.4348482 1.5269461 1.5439411 0.883641 1.399111 1.6273264
